model/final_model.pkl (torch, 246030 bytes, 21 tensors)

weight f4 [33, 11]
0	0xbc0cbb59	-0.008589589
1	0x3bcd3ef6	0.006263609
2	0x3c1c9c81	0.009558798
3	0xbc27c4c3	-0.010239783
4	0x3b2492e7	0.0025111975
5	0x3b457b58	0.0030133333
6	0xbc115333	-0.008869934
7	0x3bac3e75	0.005256469
8	0x3c06f5a0	0.0082372725
9	0xbb195967	-0.0023399235
10	0xbc165b7a	-0.009177083
11	0xbd463d6e	-0.048398428
12	0xbce2ffc6	-0.027709853
13	0xbc161610	-0.009160534
14	0x3ca02aeb	0.019551715
15	0xbd6908be	-0.056893103
16	0xbd4b1905	-0.049584407
17	0x3d051297	0.03248843
18	0xbb834308	-0.0040057935
19	0x3d1d2c69	0.03837243
20	0x3af8bd44	0.0018977304
21	0x3d1205dd	0.035650123
22	0xbd40884d	-0.047004987
23	0x3d84de8c	0.0648776
24	0xbd3642c9	-0.044497285
25	0xbac61611	-0.0015112777
26	0xbca0e429	-0.019640045
27	0xbda4f68b	-0.08054837
28	0xb96a9084	-0.00022369815
29	0x3cf51d53	0.02992121
30	0x3cd3a7bf	0.025836824
31	0xbd14b536	-0.03630563
32	0xbca6277d	-0.020282501
33	0x3c86380c	0.016384147
34	0xbcb68410	-0.02227977
35	0xbc4b6427	-0.012414015
36	0x3cfef90c	0.031124614
37	0x3c8434fa	0.016138542
38	0x3c95b435	0.018274406
39	0xbc3fb46a	-0.011700729
40	0x3ba8f48e	0.0051561063
41	0xbdaaa193	-0.08331599
42	0x3d0a7f37	0.033812728
43	0x3d0d43e2	0.034488566
44	0x3be192fd	0.0068839774
45	0x3c3ba014	0.01145174
46	0x3af5fb0d	0.0018766836
47	0x3b4d8a44	0.003136293
48	0x3ba104f7	0.004913922
49	0x3b0dbdcb	0.0021628018
50	0x3b32da76	0.0027290857
51	0x3c9d7848	0.019222394
52	0x3c0d1b2b	0.008612434
53	0x3c119544	0.008885685
54	0xbb63fb8c	-0.0034787385
55	0x3bd8b16b	0.0066129467
56	0xbd326f5d	-0.043563236
57	0x3d1d3eeb	0.03839008
58	0x3ba9646a	0.005169441
59	0x3d33a147	0.043854978
60	0x3ca275cc	0.01983156
61	0xbcd5d2f5	-0.026101569
62	0x3d0e998a	0.034814395
63	0x3cadfe81	0.021239521
64	0xbc60fa4d	-0.013731551
65	0x3b9a6c06	0.0047125844
66	0x3d93e99d	0.072222926
67	0xbb8a8b9d	-0.004228069
68	0x3c99a9f4	0.018757798
69	0xbc891676	-0.016734343
70	0xbcd71c80	-0.026258707
71	0xbc4106f6	-0.011781445
72	0x3c13c9e9	0.009020307
73	0xbd151de8	-0.036405474
74	0x3d6f8c02	0.05848313
75	0x3c294a9b	0.010332729
76	0xbd3b36cc	-0.045706555
77	0xbd532748	-0.051551133
78	0xbd37c444	-0.044864908
79	0xbd8bea79	-0.068318315
80	0xbb128e61	-0.0022362696
81	0x3d3c6651	0.045996014
82	0xbdb41b8d	-0.087943174
83	0xbc56cf61	-0.013110966
84	0xbd183a51	-0.03716499
85	0x3d5a0684	0.05322887
86	0x3cfea525	0.031084606
87	0xbd80fce0	-0.06298232
88	0xbd50b0e6	-0.050949953
89	0xbce7166b	-0.028208932
90	0x3daeb930	0.085314155
91	0xbc9100df	-0.01770061
92	0x3b6ea31b	0.0036413136
93	0xbcb31f70	-0.021865577
94	0x3c3075a6	0.010770237
95	0x3c3a0f4e	0.011356188
96	0xbcba7d6f	-0.02276489
97	0xbd36f89f	-0.044670697
98	0x3b3f578d	0.0029196471
99	0xbd34916b	-0.044083994
100	0x3d48a101	0.04898167
101	0x3ce4dc4d	0.027937079
102	0x3a960ca2	0.0011447857
103	0xbc0f13de	-0.008732764
104	0xbd1a66f0	-0.037695825
105	0xbcd2fa7a	-0.025754202
106	0xba8cabef	-0.0010732393
107	0xbdb6ffc9	-0.08935506
108	0x3dcff926	0.10154943
109	0xbcf9db94	-0.03050021
110	0x3d4a13de	0.049335353
111	0xbcb70f60	-0.022346199
112	0x3c84b025	0.016197274
113	0x3c8f183d	0.017467612
114	0xbc086ff4	-0.008327473
115	0x3cab6ff1	0.020927401
116	0x3ccd5dad	0.025069082
117	0xbdb0e72b	-0.08637842
118	0x3cf1881f	0.029483853
119	0xbcb79390	-0.02240923
120	0x3cde2009	0.027114885
121	0x3c727225	0.014797722
122	0xbb87abdf	-0.0041403617
123	0xbce075ef	-0.027399985
124	0x3dddbd15	0.1082708
125	0xbd53b472	-0.051685758
126	0xbd23371f	-0.03984749
127	0x3d0f4556	0.034978233
128	0xbd10ea6c	-0.035379812
129	0xbc12c7b7	-0.008958749
130	0xbb4ec5c9	-0.0031550995
131	0xbc3eb84e	-0.011640621
132	0x3d1eb79b	0.03874932
133	0xbc273bc2	-0.0102071185
134	0xbcd01689	-0.02540137
135	0xbc1ee46c	-0.009698015
136	0x3d76ee22	0.060285695
137	0x3ce2ef74	0.02770207
138	0xbd8e19da	-0.069385245
139	0x3d03c958	0.03217444
140	0x3d7f37c6	0.06230905
141	0x3ce32d53	0.027731573
142	0xbccdfd37	-0.025145156
143	0x3d055949	0.032555852
144	0x3d4c28d5	0.049843628
145	0xbcc85155	-0.024452845
146	0xbbfe4277	-0.007759388
147	0x3d2d288c	0.042274997
148	0x3c505067	0.012714482
149	0x3bb34b8c	0.0054716524
150	0xbb90fb10	-0.00442446
151	0xbcbbd870	-0.022930354
152	0x3c9ec050	0.019378811
153	0xbcfd1646	-0.03089441
154	0xbaa45ad0	-0.0012539271
155	0x3c38811c	0.011261251
156	0x3b87515e	0.004129573
157	0xbb88f42b	-0.0041794977
158	0x3c3df232	0.011593388
159	0xbc5e11dd	-0.013554064
160	0x37e6ba70	2.7504953e-05
161	0xbb45ca03	-0.0030180223
162	0xbad418e2	-0.0016181732
163	0x3b8ca8e1	0.004292593
164	0xbaf7b135	-0.0018897416
165	0xbbcea67b	-0.006306467
166	0x3d38eeeb	0.045149725
167	0xbd441b7c	-0.047877774
168	0xbd65ac86	-0.056072734
169	0x3cba648b	0.02275302
170	0xbc13cb21	-0.009020598
171	0x3c3a68ef	0.011377557
172	0x3d445b65	0.047938723
173	0x3cd1249b	0.02553015
174	0x3d6badfe	0.05753898
175	0x3ae86d0c	0.0017732694
176	0x3b9fec37	0.004880454
177	0xbd711aeb	-0.05886356
178	0x3c53d941	0.012930215
179	0x3d4a5bcc	0.04940395
180	0xbd22d127	-0.039750244
181	0x3c96b741	0.01839793
182	0x3d8f13e3	0.06986215
183	0xbb321df9	-0.002717851
184	0xbc415caa	-0.011801878
185	0xbd112009	-0.03543094
186	0xbc752b76	-0.014963975
187	0xbd01f216	-0.03172501
188	0xbcd7cc99	-0.026342677
189	0x3c4bec40	0.012446463
190	0x3c90944d	0.01764884
191	0xbd365b46	-0.04452064
192	0x3c2418ba	0.010015661
193	0x3d3b91cf	0.04579335
194	0xbd520389	-0.051272903
195	0xbc831a9e	-0.016003903
196	0xbd1e07a6	-0.038581513
197	0x3ccb2107	0.024796022
198	0x3d36f91f	0.044671174
199	0xbc85616a	-0.016281802
200	0x3cb4866b	0.022036752
201	0xbd95b1f4	-0.073093325
202	0xbc9564b0	-0.018236488
203	0x3c1bb4d4	0.009503562
204	0x3d0fad02	0.035077102
205	0xbc023932	-0.007948207
206	0xbc2f2c16	-0.010691663
207	0x3c658883	0.014009598
208	0x3db62547	0.08893829
209	0x3d58e8e7	0.052956488
210	0x3d702eff	0.05863857
211	0xbd39adea	-0.045331873
212	0x3bd867fe	0.0066041937
213	0x3d296636	0.04135724
214	0x3d29287f	0.041298386
215	0xbd3b9836	-0.045799457
216	0xbd2fc289	-0.042910133
217	0x3c54c959	0.012987458
218	0xba1f581e	-0.0006078499
219	0xbcd54f3d	-0.02603876
220	0xbd5d4491	-0.05402047
221	0x3c825218	0.015908286
222	0xbd9f9ebb	-0.07793947
223	0xbcfea8fd	-0.03108644
224	0x3cc3538c	0.02384355
225	0x3c953a58	0.018216297
226	0xbc949aa3	-0.018140143
227	0xbaf7cc28	-0.0018905448
228	0xbc9fb9a2	-0.019497696
229	0x3d09ba2f	0.033624824
230	0x3c971e3c	0.018447034
231	0x3c10e64b	0.008843969
232	0x3d862e52	0.06551804
233	0xbd1f52c7	-0.038897302
234	0x3c9be4ad	0.01902994
235	0x3d44cd97	0.04804763
236	0xbbd367c6	-0.0064515797
237	0xbd08b18d	-0.03337245
238	0xbda437a6	-0.080184266
239	0xbd0690b9	-0.032852862
240	0x3d176344	0.0369599
241	0xbd115363	-0.035479914
242	0xbd018ffb	-0.03163145
243	0xbd3cb0bb	-0.04606698
244	0x3da19c29	0.07891113
245	0x3c352e1b	0.011058356
246	0x3d0f8539	0.03503916
247	0xbda91dbe	-0.08257626
248	0x3c846f59	0.016166376
249	0x3d737255	0.059435207
250	0x3af78ae7	0.0018886001
251	0xbbde1095	-0.006776879
252	0xbd929efb	-0.07159229
253	0xbd6c6e12	-0.05772216
254	0x3d1e9b85	0.038722534
255	0xbda1a363	-0.07892492

weight f4 [33, 11]
0	0xbbb85972	-0.005625897
1	0x3bc3c18e	0.0059740013
2	0xbb844404	-0.0040364284
3	0x3bbf433a	0.0058368715
4	0x3b88f1a2	0.0041791955
5	0x3c9dff3a	0.01928674
6	0xbb81ca53	-0.0039608865
7	0x3ba40fcf	0.0050067673
8	0xbbfeea7e	-0.0077794185
9	0xbbd1da99	-0.0064042327
10	0x3c40b5bc	0.011762079
11	0x3d5ecaea	0.054392733
12	0x3ca750ef	0.020424334
13	0x3c703d5c	0.014663067
14	0xbc29e2a1	-0.010368974
15	0x3cba39e9	0.022732692
16	0x3c5e5459	0.013569915
17	0xbcece448	-0.028917447
18	0xbccecbca	-0.025243659
19	0x3cf9b458	0.030481502
20	0xbd9ed6e0	-0.07755828
21	0xba8b5788	-0.0010630945
22	0xbcdcbbd5	-0.026945034
23	0xbc2c23b7	-0.010506562
24	0xbcfcb74d	-0.030849123
25	0x3b74abca	0.003733384
26	0x3d2f1d04	0.04275228
27	0xba63b20a	-0.00086858927
28	0x3c6d60c5	0.014488404
29	0x3bd4ef48	0.006498251
30	0x3d0d4f2a	0.034499325
31	0xbc9ced6d	-0.019156182
32	0x3a3c5dc3	0.00071856024
33	0xbd724844	-0.05915095
34	0xbc5ddf36	-0.013541987
35	0xbb3152e2	-0.0027057459
36	0x3b9dbd63	0.0048138364
37	0x3ce832ba	0.0283445
38	0x3cc9edf4	0.024649598
39	0xbd5773ce	-0.052600674
40	0x3cf1ebf6	0.02953146
41	0xbcb97211	-0.022637399
42	0xbc2781c5	-0.010223811
43	0x3d767c1e	0.06017696
44	0xbb74cd0f	-0.003735367
45	0xbb53c7dd	-0.0032315173
46	0xbb93aada	-0.004506451
47	0x3bcc7664	0.006239699
48	0x3c296e94	0.010341305
49	0xbae019d9	-0.0017097547
50	0x3c22f42b	0.0099459095
51	0x3aa0168e	0.0012213753
52	0xbac0e2b9	-0.0014716006
53	0x3becd2cf	0.007227279
54	0x3bae186e	0.005312971
55	0x3d3d6cab	0.046246212
56	0xbccf783d	-0.025325889
57	0x3c017384	0.007901076
58	0xbc121f0b	-0.008918534
59	0xbc1b8d76	-0.009494176
60	0xbd816386	-0.06317811
61	0xbd7a9e84	-0.06118633
62	0x3acd7bdb	0.0015677171
63	0xbca4a1df	-0.020096717
64	0x3ce13e75	0.027495602
65	0xbb940a89	-0.0045178575
66	0xbacf520e	-0.0015817301
67	0x3d4d3ca6	0.050106667
68	0xbc59e6e7	-0.01329968
69	0x3cd10ab8	0.025517806
70	0x391105a2	0.00013830376
71	0xbc17c047	-0.009262151
72	0xbac44dfc	-0.0014976854
73	0x3c9a8a72	0.018864844
74	0x3b9ed45b	0.004847092
75	0xbb88896c	-0.0041667726
76	0x3aadf9eb	0.0013273334
77	0xbd12af8b	-0.035811942
78	0xbd892871	-0.06697167
79	0x3caf739a	0.021417428
80	0x3d3b9850	0.045799553
81	0x3c79152b	0.015202801
82	0xbd2f5550	-0.04280597
83	0xbdc59e49	-0.09649331
84	0x3d057015	0.032577593
85	0x3ddc6709	0.1076184
86	0x3d1e438c	0.038638636
87	0x3cf527da	0.02992623
88	0x3cd75c6c	0.026289187
89	0x3d3653b4	0.04451342
90	0x3d33d543	0.043904554
91	0x3c1490fd	0.009067771
92	0x3cd02f8b	0.025413295
93	0x3d0fefca	0.03514079
94	0xbd1a802e	-0.037719898
95	0xbd032060	-0.032013297
96	0x3cb893e4	0.022531457
97	0xbc44024c	-0.011963438
98	0xbd118ce7	-0.035534766
99	0xbc1485f4	-0.00906514
100	0x3bf930ad	0.0076046796
101	0xbcd15697	-0.025553985
102	0xbbf128a3	-0.0073595806
103	0xbd26a451	-0.040684048
104	0x3cac14c7	0.021006001
105	0x3d83dfc9	0.06439168
106	0xbce4e6c3	-0.027942067
107	0xbd574071	-0.05255169
108	0xbd582a36	-0.05277463
109	0xbc464879	-0.01210224
110	0x3bb5f464	0.0055528153
111	0x3bc5e97a	0.0060397955
112	0xbcac5c3f	-0.02104008
113	0xbc445639	-0.011983448
114	0xbd8cd744	-0.06876996
115	0xbc0426c8	-0.008065887
116	0x3c8e7a11	0.01739219
117	0xbb891512	-0.00418342
118	0xbd87bf17	-0.06628244
119	0x3b5a3d5b	0.003330073
120	0x3c6c83db	0.014435734
121	0xbd67e149	-0.056611333
122	0x3bec7112	0.0072156275
123	0xbd418d6f	-0.047254022
124	0x3abbdf37	0.0014333491
125	0xbca87d5b	-0.020567587
126	0xbd38115f	-0.04493844
127	0xbce9c914	-0.028538264
128	0x3d0728cd	0.032997895
129	0x3d9be2c9	0.07611615
130	0x3ca437f3	0.02004621
131	0x3d190793	0.03736074
132	0xbcefacdf	-0.029257236
133	0xbc549f0a	-0.012977371
134	0xbb12fcca	-0.0022428506
135	0xbd04dcde	-0.032437198
136	0xbd9f39e4	-0.07774714
137	0x3a745ca7	0.00093216676
138	0x3d292e64	0.041304007
139	0xbc5c4779	-0.013444775
140	0x3d8eab94	0.0696632
141	0xbcd878bf	-0.026424764
142	0xbcd2a428	-0.025713041
143	0xbc2ef0e8	-0.010677554
144	0x3c05b84d	0.0081616165
145	0xbd06734f	-0.03282481
146	0xbd377e6e	-0.044798307
147	0x3d66da1b	0.056360345
148	0x3d1e1c1f	0.038601037
149	0xbc9a4286	-0.018830549
150	0x3d4012f0	0.04689306
151	0x3ce305dd	0.027712757
152	0xbd86c30e	-0.065801725
153	0xbd9279ad	-0.07152114
154	0xbae7b22d	-0.0017677002
155	0x3b2815c6	0.0025647744
156	0x3c0c0a89	0.008547434
157	0x3c270d6b	0.01019607
158	0xbbdf9946	-0.0068236915
159	0x3b9a9425	0.0047173672
160	0x3bb256f8	0.0054424964
161	0xbb2160d8	-0.0024624374
162	0x3c7ba695	0.0153595405
163	0xba65c8fc	-0.0008765606
164	0x3c936674	0.01799319
165	0xbc8d0fac	-0.017219387
166	0xbc9972e4	-0.018731542
167	0x3d3cf099	0.04612789
168	0x3c1c9b78	0.009558551
169	0xbd0e9642	-0.034811266
170	0xbc918857	-0.017765207
171	0xbb265191	-0.0025378207
172	0xbc658781	-0.014009357
173	0x3d85d0b3	0.06533947
174	0x3c77b39b	0.015118505
175	0xbbd5dbd7	-0.006526451
176	0x3ca22357	0.019792242
177	0xbb4171a2	-0.0029517193
178	0x3c7dcc11	0.015490548
179	0x3ceea4d8	0.029131338
180	0x3d73a6d8	0.059485286
181	0x3d00d02c	0.03144853
182	0x3d37da75	0.04488607
183	0xbc564d81	-0.013080002
184	0xbd3df188	-0.04637292
185	0xbcf7bca0	-0.03024131
186	0xbd25b156	-0.040452324
187	0xbcccdbd0	-0.025007159
188	0xbdbd5600	-0.09244919
189	0x3d195f4f	0.03744441
190	0x3d21a335	0.039462287
191	0x3c06bdb0	0.008223936
192	0x3cfb6de3	0.030692047
193	0x3c0f2983	0.0087379245
194	0x3ca1b1ad	0.019738043
195	0xbcc81936	-0.024426084
196	0xbc2a6179	-0.010399216
197	0xbcdd1649	-0.026988165
198	0xbcc93f8d	-0.024566436
199	0x3d644386	0.055728458
200	0x3d1b1a7d	0.037867058
201	0x3ae5c44d	0.0017529816
202	0xbc719e15	-0.014747162
203	0x3d694cf1	0.056958143
204	0xbd01c46f	-0.031681474
205	0xbdd019b1	-0.1016115
206	0xbca0b0ab	-0.019615492
207	0x3c1d1453	0.009587365
208	0xbd4b7102	-0.04966832
209	0xbcfe462c	-0.03103932
210	0x3d901aae	0.07036339
211	0xbd93d1c3	-0.07217743
212	0xbd568043	-0.052368414
213	0xbd2e04d0	-0.04248506
214	0xbd01e471	-0.031712
215	0xbcc8a5fb	-0.024493208
216	0xbcb77bc3	-0.022397881
217	0xbd10025b	-0.035158496
218	0x3d594977	0.053048577
219	0xbc5ba212	-0.01340534
220	0x3cdb268d	0.02675178
221	0xbcaba7a5	-0.020953963
222	0xbd02c664	-0.03192748
223	0xbc877827	-0.016536785
224	0xbc8699c0	-0.016430736
225	0xbcba25f2	-0.022723172
226	0x3d008b8a	0.031383075
227	0xbbe38ed3	-0.006944516
228	0xbd17e9bf	-0.037088152
229	0xbc9b6a3f	-0.01897156
230	0x3c0ab17c	0.008465167
231	0xbc6f1a89	-0.014593729
232	0xbc1813d3	-0.00928207
233	0x3a3653f6	0.000695526
234	0x3d1d8f2c	0.038466617
235	0xbdae9e18	-0.08526248
236	0x3be41925	0.0069610053
237	0x3d3495e9	0.044088278
238	0x3c320262	0.010864826
239	0x3b77914f	0.003777582
240	0xbd5bc046	-0.053650163
241	0x3d4a4298	0.049379915
242	0xbdb927a5	-0.09040765
243	0xbc8e7998	-0.017391965
244	0x3cf18aab	0.029485067
245	0x3d0a2426	0.03372588
246	0xbb144529	-0.002262423
247	0xbb6b3559	-0.0035889952
248	0xbd9b014a	-0.07568605
249	0x3d465416	0.048420034
250	0x3ca2b6cd	0.019862557
251	0xbd169d91	-0.03677136
252	0xbcbc9ffd	-0.023025507
253	0x3d22d732	0.039756007
254	0x3cff5a01	0.031170847
255	0xbc1d23f1	-0.009591089

weight f4 [3, 3]
0	0x3c2ddea4	0.010612164
1	0x3c8aa25f	0.016923128
2	0xbb3e47c0	-0.0029034466
3	0x392e3264	0.00016612705
4	0xbd771f20	-0.060332417
5	0xbcb2ee1d	-0.021842057
6	0x3d479fb9	0.048736308
7	0xbcf53bbf	-0.029935716
8	0xbd0d02f6	-0.034426652

weight f4 [3, 3]
0	0x3c550dc4	0.01300377
1	0x3c104839	0.008806282
2	0xbbb24d51	-0.0054413457
3	0x3d29320c	0.041307494
4	0xbcbe37e0	-0.023220003
5	0x3d02b456	0.031910263
6	0x3b69837c	0.003563135
7	0xbd3d73a0	-0.046252847
8	0x3d6319bd	0.055444468

weight f4 [35, 12]
0	0x3aa154c8	0.0012308592
1	0x3bdfd355	0.0068306127
2	0xbc591761	-0.013250203
3	0x3c8c05e6	0.017092656
4	0xbc336734	-0.0109498985
5	0xbc61d524	-0.013783727
6	0x3b58e4f0	0.0033095442
7	0xbbb24516	-0.0054403646
8	0xbc9bf180	-0.019036055
9	0x3c1dfcd9	0.009642803
10	0xbbd05e89	-0.0063589257
11	0x3bc5f738	0.0060414337
12	0x3be396c8	0.0069454648
13	0x3db5b3a7	0.088721566
14	0xbca04b95	-0.01956729
15	0x3d2387f3	0.039924573
16	0x3daf816d	0.08569608
17	0x3d563393	0.05229528
18	0xbc387fd5	-0.011260946
19	0x3d6552a8	0.05598703
20	0x3ca92c9a	0.02065115
21	0x3c5cb040	0.013469756
22	0x3dfe1880	0.12407017
23	0xbccf1ed9	-0.025283264
24	0x3d32aec8	0.043623716
25	0xbb7a1ba0	-0.0038163438
26	0x3bf7c215	0.007560978
27	0xbd1b1876	-0.037865125
28	0xbbf06496	-0.0073362095
29	0x3c237a70	0.009977922
30	0xbcbfa0e3	-0.023392146
31	0x3c03300c	0.008007061
32	0x3d69f11f	0.057114717
33	0x3c33b50b	0.010968457
34	0x3cd5849e	0.026064213
35	0xbcfa9092	-0.030586515
36	0xbd4c111d	-0.049821008
37	0x39c5aba5	0.00037702653
38	0x3c74b200	0.014935017
39	0x3daa8c18	0.08327502
40	0xbbeea8fd	-0.0072833286
41	0xbccf7f41	-0.025329234
42	0xbc48c4df	-0.012253969
43	0x3c9e2f05	0.01930953
44	0x3bf5894d	0.007493174
45	0x3d9bed22	0.07613589
46	0x3cb5e858	0.022205517
47	0xba153173	-0.00056912674
48	0xbb5c3443	-0.0033600486
49	0xbda226c7	-0.079175524
50	0xbbe6fdba	-0.0070492895
51	0xbb7b82bf	-0.0038377491
52	0xbc936af5	-0.017995337
53	0xbd12c6db	-0.035834175
54	0x3d809ab1	0.06279505
55	0x3b88985b	0.004168553
56	0xbd764bf9	-0.060131047
57	0xbc1bfab8	-0.009520225
58	0xbd361b11	-0.044459406
59	0x3aa7e936	0.0012810591
60	0xbd43209c	-0.04763852
61	0xbd3ad54a	-0.045613565
62	0x3ca03401	0.019556047
63	0xbd44c248	-0.048036844
64	0x3cb2bc27	0.021818234
65	0xbc1c2e5e	-0.009532539
66	0xbbd27c77	-0.006423529
67	0x3d13a0ee	0.036042146
68	0x3b21bcb7	0.0024679133
69	0xbd73ecfa	-0.05955217
70	0xbbf2e83d	-0.007412939
71	0x3d242c8c	0.040081546
72	0xbcd20c6c	-0.025640689
73	0x3c832904	0.016010769
74	0xbcb95046	-0.022621285
75	0x3cdddada	0.027081896
76	0xbd2dd2db	-0.042437416
77	0xbcd4eedf	-0.025992809
78	0x3b7c01f8	0.0038453322
79	0x3cf3b965	0.029751489
80	0xbc680365	-0.014160966
81	0xbd263330	-0.04057616
82	0xbcd8dc38	-0.026472196
83	0xbcad9e02	-0.021193508
84	0xbb818f59	-0.003953856
85	0x3d330f82	0.04371596
86	0xbd81617c	-0.06317422
87	0x3cd718ef	0.026257006
88	0x3d085512	0.033284254
89	0x3c16bd41	0.009200395
90	0x3d0d26d4	0.034460858
91	0xbc023394	-0.0079468675
92	0xbd7bbc29	-0.06145874
93	0xbdd0edfd	-0.10201643
94	0x3c475c94	0.012168068
95	0xbc93df8d	-0.018050933
96	0xbd4fc71f	-0.050727006
97	0xbd2ae421	-0.041721467
98	0x3c80e8da	0.015736032
99	0xbd14c8a7	-0.03632417
100	0x3d8da60d	0.06916437
101	0xbd0f3ed0	-0.034972012
102	0xbd69731c	-0.056994542
103	0x3c8ed4dd	0.017435485
104	0xbd314e98	-0.043287843
105	0xbd2e82eb	-0.04260532
106	0x3ce93795	0.028468886
107	0xbcbcfd76	-0.023070078
108	0xbca5fa19	-0.020260857
109	0xbdd5dfe2	-0.10443093
110	0x3c189993	0.009313959
111	0x3d35fa69	0.044428263
112	0x3c93d231	0.018044563
113	0xbd5074a5	-0.05089249
114	0xbd19e677	-0.037573304
115	0x3d0d21d8	0.034456104
116	0x3c30b30b	0.010784875
117	0xbd872d41	-0.066004284
118	0x3d2d393b	0.042290907
119	0xbda80840	-0.082046986
120	0xbc2bad50	-0.010478333
121	0xba652a2c	-0.0008741941
122	0x3c441873	0.01196872
123	0x3c1aaf36	0.009441188
124	0x3a2efce8	0.0006675259
125	0x3b8ed12e	0.0043584323
126	0xba55f55e	-0.0008161868
127	0x3ba64e1b	0.005075229
128	0xbc8e0366	-0.017335605
129	0x3af8eb14	0.0018990957
130	0x3bef3131	0.0072995652
131	0x3c9c0e69	0.01904984
132	0xbcdaa81a	-0.026691485
133	0xbbfa706e	-0.007642797
134	0x3c635f44	0.013877694
135	0xbcd1b087	-0.02559687
136	0x3b8ae9fa	0.004239318
137	0x3d0a7661	0.0338043
138	0xbc1f57d9	-0.009725534
139	0xbd0d7eed	-0.034544874
140	0xbd9dea9e	-0.07710765
141	0xbd0290a9	-0.03187624
142	0xbc355c17	-0.011069319
143	0xbce81b83	-0.028333431
144	0xbbebb919	-0.007193696
145	0xba1b710e	-0.0005929627
146	0x3d0b0346	0.03393867
147	0xbc904ee0	-0.017615736
148	0x3c2ea82a	0.010660211
149	0x3d1d4388	0.03839448
150	0xbba0ae10	-0.0049035624
151	0xbc1f195a	-0.009710634
152	0x3d80bc9b	0.06285974
153	0x3d447e0e	0.047971778
154	0xbc836609	-0.016039865
155	0x3d22795f	0.03966653
156	0xbc3c0cfd	-0.011477706
157	0x3cf3f29d	0.029778773
158	0x3c19875f	0.009370654
159	0x3bde8473	0.0067906915
160	0x3d6bbbe7	0.057552245
161	0x3d811e70	0.063046336
162	0x3ca1a25f	0.019730745
163	0x3d0475f5	0.032339055
164	0xbb658cde	-0.003502659
165	0x3d57aecb	0.05265693
166	0x3d9ca747	0.07649093
167	0xbd1496cb	-0.03627662
168	0xbd04c7d9	-0.032417152
169	0x3bc48bc5	0.005998107
170	0x3d6acb24	0.057322636
171	0x3c814ed0	0.015784651
172	0x3cff75ce	0.031184103
173	0x3cdf12c8	0.027230635
174	0xbd818d26	-0.0632575
175	0xbc524ae5	-0.012835239
176	0x3ce3f189	0.027825134
177	0xbd0efdaf	-0.0349099
178	0x3cb0fa8b	0.021603843
179	0x3c22c016	0.009933492
180	0xbcd722e6	-0.026261758
181	0xbcadd4a4	-0.021219559
182	0xbca7c0b4	-0.02047763
183	0xbd5b4ce9	-0.053540144
184	0x3cd3e685	0.025866756
185	0xbb9645d4	-0.004585961
186	0xbc23f068	-0.010006048
187	0xbd3c34a6	-0.045948647
188	0x3c3850b3	0.011249709
189	0xbc0967fd	-0.008386609
190	0x3c61d1ba	0.013782913
191	0x3c9fd902	0.019512657
192	0x3a816b87	0.0009873965
193	0x3c3857b3	0.011251378
194	0x3d103aa5	0.035212178
195	0xbd1d004f	-0.038330372
196	0x3c92a2c5	0.01789988
197	0xbd106da2	-0.035260804
198	0x3d0b68fa	0.03403566
199	0x3d84765c	0.06467888
200	0xbd07118a	-0.03297571
201	0x3bf36280	0.0074275136
202	0xbbe830a3	-0.007085876
203	0x3c540391	0.012940303
204	0xbd96e786	-0.07368378
205	0x3d765150	0.06013614
206	0xbd62c3f7	-0.055362668
207	0xbd0a1c9f	-0.0337187
208	0x3bba3a85	0.0056832456
209	0x3993a633	0.00028161853
210	0xbc4bd2ac	-0.012440365
211	0x3d5fb934	0.054619983
212	0x3d393733	0.045218658
213	0xbcfa553a	-0.030558217
214	0x3ce1bac9	0.027554886
215	0x3c92b72b	0.017909607
216	0x3d29e492	0.041477747
217	0xbd342f26	-0.043990277
218	0xbcf9c8e4	-0.0304913
219	0xbca76a39	-0.020436393
220	0xbd5091f1	-0.05092043
221	0x3d3fa22f	0.04678553
222	0xbd81e546	-0.063425586
223	0x3c9f06b1	0.01941237
224	0x3bb08208	0.0053865947
225	0x3c6e9c20	0.01456359
226	0xbc7dd52c	-0.015492719
227	0x3c92a022	0.017898623
228	0xbd171856	-0.036888443
229	0x3c2d4986	0.010576611
230	0x3d252bd7	0.040325012
231	0xb7977a02	-1.8057417e-05
232	0xbd6cfc22	-0.05785764
233	0xbb565c7d	-0.0032708936
234	0xbcedeb57	-0.029042883
235	0xbd6ff289	-0.05858091
236	0x3d2ab041	0.041671995
237	0xbd756b09	-0.05991653
238	0x3c9df203	0.01928044
239	0x3d82e7a6	0.0639184
240	0x3d1936e5	0.037405867
241	0x3b8717e4	0.004122721
242	0xbd86168c	-0.06547269
243	0x3b1aa830	0.0023598783
244	0x3d163d46	0.03667953
245	0x3d423753	0.047416043
246	0xba96cb59	-0.0011504694
247	0xbbbc88ef	-0.0057536284
248	0x3af9afa7	0.0019049541
249	0xbc80d1b2	-0.01572499
250	0xbbaec958	-0.0053340606
251	0xbcd222e8	-0.02565141
252	0xbca1b2ba	-0.019738544
253	0x3bbdc3a7	0.005791146
254	0x3b6b24f4	0.003588018
255	0x398c4f4f	0.0002676197

weight f4 [2]
0	0x3f63f35c	0.8904321
1	0x3f67919d	0.90456563

bias f4 [2]
0	0x3cafbfc6	0.02145375
1	0x3ce53e98	0.027983949

running_mean f4 [2]
0	0x3c857cf8	0.016294941
1	0x3bfde3ea	0.0077481167

running_var f4 [2]
0	0x3f86e0d7	1.0537366
1	0x3f893468	1.0719118

weight f4 [200, 42]
0	0x3db0c753	0.08631768
1	0xbcf051b9	-0.029335843
2	0xbe54904b	-0.20758168
3	0xbd66a112	-0.056305952
4	0x3a287ee0	0.0006427597
5	0x3dbf95b6	0.09354727
6	0xbd5bbffa	-0.05364988
7	0xbdaff203	-0.08591082
8	0x3c97980f	0.018505124
9	0xbdb54575	-0.088511385
10	0x3de047c0	0.10951185
11	0x3cf79dc9	0.030226605
12	0x3e118afd	0.14213176
13	0x3dd89f5c	0.105772704
14	0xbe46791b	-0.19382136
15	0x3d093225	0.033495087
16	0xbe015967	-0.1263176
17	0xbe1c3ca6	-0.1525751
18	0x3d4a5de1	0.049405936
19	0xbdab5969	-0.08366663
20	0xbcd7598f	-0.026287822
21	0xbdbd5ae7	-0.09245854
22	0xbc703c9d	-0.014662889
23	0x3e376b76	0.17912087
24	0x3c201c61	0.009772391
25	0x3d5da922	0.054116376
26	0x3d926b5b	0.07149383
27	0xbe68dc5f	-0.22740315
28	0x3d1bf8a3	0.038078915
29	0xbdace5e5	-0.084422864
30	0xbe091793	-0.13387899
31	0xbd823ea7	-0.06359606
32	0xbe5aef1d	-0.21380277
33	0xbda00a26	-0.07814436
34	0xbd68b8f1	-0.056817
35	0xbd25f2b2	-0.040514655
36	0x3d356cdc	0.04429327
37	0xbd531715	-0.051535685
38	0xbe020308	-0.12696469
39	0xbdc20e11	-0.09475339
40	0xbc40ddcf	-0.011771633
41	0xbd236cd7	-0.03989872
42	0xbdaba5a1	-0.083812006
43	0xbdd60f8d	-0.10452185
44	0x3d743d0d	0.059628535
45	0xbdb0060f	-0.085949056
46	0x3e1284df	0.14308499
47	0xbd6cd0a0	-0.057816148
48	0xbe12e5f5	-0.14345534
49	0xbc4f78f6	-0.012663117
50	0x3daeea01	0.085407265
51	0xbe2fd395	-0.17170556
52	0xbd189411	-0.037250582
53	0x3d5a409a	0.053284265
54	0x3b82ea99	0.0039952514
55	0xbd076b69	-0.03306142
56	0xbc2630fe	-0.010143517
57	0xbda8bd00	-0.08239174
58	0xbcc817be	-0.024425384
59	0x3cc004ba	0.023439754
60	0xbe087677	-0.13326441
61	0x3de0675f	0.109572165
62	0x3bd938db	0.006629092
63	0x3cfc406f	0.030792443
64	0xbddbb520	-0.10727906
65	0x3cf9fbfc	0.030515663
66	0xbe0b47bb	-0.13601582
67	0xbded662b	-0.115917526
68	0xbde074ec	-0.10959801
69	0xbba6bd22	-0.0050884644
70	0xbe1ebe9c	-0.15502399
71	0x3c255a18	0.010092281
72	0x3dd7be8d	0.105343916
73	0xbd865229	-0.065586396
74	0x3d8e8939	0.06959767
75	0xbd0520ba	-0.032501914
76	0xbe1d809a	-0.15381089
77	0x3d98b3a2	0.07456137
78	0xbd64caa7	-0.055857327
79	0x3dce5ae6	0.10075931
80	0x3e05aab8	0.13053405
81	0x3d98b1b2	0.07455768
82	0xbdf900fb	-0.1215839
83	0x3de2a292	0.11066164
84	0x3dad7ee0	0.08471465
85	0xbe177788	-0.14791691
86	0xbca9bb27	-0.020719124
87	0xbe4870cc	-0.19574279
88	0x3e55ae49	0.20867266
89	0xbd30b147	-0.043137815
90	0x3df08fe0	0.11746192
91	0x3e4ab1f1	0.19794442
92	0xbd280f88	-0.041030437
93	0xbd587c96	-0.05285319
94	0xbdc52b46	-0.096273944
95	0xbbaaf6e5	-0.0052174204
96	0x3df6a519	0.12043209
97	0xbe15b4c5	-0.1461974
98	0xbd99fb14	-0.075185925
99	0xbdaf5f4c	-0.08563098
100	0xbe018893	-0.12649755
101	0x3e3d4dd3	0.18486719
102	0xbd74609b	-0.059662443
103	0x3dbb6062	0.09149243
104	0x3e0e6693	0.13906316
105	0x3d9a4f72	0.07534684
106	0xbdc54e41	-0.096340664
107	0x3e117a55	0.14206822
108	0xbd3e7f60	-0.046508193
109	0xbd8eec01	-0.06978608
110	0x3d47c9c7	0.048776414
111	0x3c434f91	0.011920826
112	0x3e1b30ea	0.15155378
113	0x3d8faa07	0.07014852
114	0xbd95ed5a	-0.07320662
115	0xbe3e97c4	-0.18612581
116	0xbd374e8d	-0.044752646
117	0xbd87a0a0	-0.06622434
118	0x3e41d22a	0.18927827
119	0xbe8d6dfc	-0.27622974
120	0x3d98bb3f	0.07457589
121	0xbda9dbdb	-0.08293887
122	0x3dc7dae0	0.09758544
123	0xbd9f32f5	-0.07773391
124	0xbd9004be	-0.070321545
125	0x3ca06ef0	0.01958415
126	0x3e319bfd	0.17344661
127	0x3c5fc6c3	0.013658228
128	0x3de459f8	0.11149973
129	0x3cdf78f3	0.027279353
130	0x3d3713ab	0.04469649
131	0x3dc235e7	0.09482937
132	0xbd8f5539	-0.06998677
133	0x3dfd4419	0.12366504
134	0x3def4093	0.116822384
135	0x3e3db1f4	0.18524915
136	0x3e3784a0	0.17921686
137	0x3c727632	0.014798688
138	0x3e21aa2b	0.1578757
139	0x3e088068	0.13330233
140	0xbe004c86	-0.12529191
141	0xbd87885b	-0.066178046
142	0xbe197476	-0.14985833
143	0x3df6a4d1	0.12043155
144	0xbd3c24ab	-0.045933407
145	0x3d9a7942	0.07542659
146	0xbdf12f21	-0.11776567
147	0x3e3f917f	0.18707846
148	0xbde71534	-0.11283341
149	0x3dfb20b5	0.12262098
150	0x3e249544	0.16072565
151	0xbd885b97	-0.066580944
152	0x3ddc1d02	0.1074772
153	0x3da68874	0.08131495
154	0x3d0c31a1	0.034227017
155	0xbdf15aee	-0.117849216
156	0xbdce97c0	-0.10087538
157	0xbdc31000	-0.09524536
158	0x3c50b6a0	0.012738854
159	0xbb45d385	-0.003018589
160	0x3d00bf65	0.031432528
161	0x3dd15120	0.102205515
162	0x3df22034	0.118225485
163	0x3df6063b	0.12012907
164	0xbdbd2130	-0.09234846
165	0xbe1562e1	-0.145885
166	0xbda3677c	-0.079787225
167	0xbd7f67dd	-0.06235491
168	0x3d961290	0.07327759
169	0x3e0a4a5d	0.1350493
170	0x3d78a8c8	0.060707837
171	0xbd9d6c6a	-0.07686694
172	0x3e499e35	0.19689257
173	0x3dc5489a	0.09632988
174	0xbe3f93ca	-0.18708721
175	0xbd3e0db7	-0.0463998
176	0xbd8d9e2b	-0.06914934
177	0xbbe675b5	-0.0070330747
178	0x3cab0d32	0.020880315
179	0x3daa914e	0.08328496
180	0x3d0d4dda	0.034498073
181	0xbced3837	-0.02895747
182	0xbe0dcec4	-0.13848406
183	0xbd941149	-0.072298594
184	0x3e30adfa	0.17253867
185	0x3d7b0ba2	0.06129039
186	0xbd56b4a7	-0.052418377
187	0xbda76e3e	-0.08175324
188	0xbd1b20ca	-0.037873067
189	0x3cb765dd	0.02238744
190	0xbd9f89c8	-0.077899516
191	0xbd882fde	-0.06649755
192	0xbdcfc9ab	-0.10145887
193	0x3cf5c7f5	0.030002574
194	0x3ddc0d3b	0.10744711
195	0xbd9a3ec3	-0.07531502
196	0x3d0ba40e	0.034092
197	0xbd77f8b3	-0.060539912
198	0xbc7bf6e7	-0.01537869
199	0xbe44f2cf	-0.19233249
200	0xbda405e5	-0.08008937
201	0x3d98a57d	0.074534394
202	0xbdd4c592	-0.10389246
203	0xbd7749f4	-0.06037326
204	0xbd97b124	-0.07406834
205	0xb9651789	-0.0002184791
206	0xbe02327f	-0.12714575
207	0x3e13d323	0.14436011
208	0xbbed2755	-0.0072373548
209	0xbc95793f	-0.018246291
210	0x3def53cf	0.11685907
211	0x3dce6888	0.100785315
212	0x3dfbd3b1	0.12296236
213	0xbd1a1cd7	-0.03762516
214	0x3d6892c4	0.05678059
215	0xbe20c7b7	-0.15701185
216	0xbe31a6d6	-0.17348799
217	0xbbd2fb74	-0.006438667
218	0x3e17553c	0.14778608
219	0xbd8f43f3	-0.06995382
220	0x3be56dc3	0.00700161
221	0x3c3fb04f	0.01169975
222	0x3d55d75a	0.05220733
223	0x3cb1fd3d	0.021727199
224	0x3c896d53	0.016775763
225	0x3c2d80fc	0.010589834
226	0x3e28f216	0.16498598
227	0x3dd35ee6	0.10320835
228	0x3e06cb21	0.13163425
229	0x3d417826	0.047233723
230	0x3c8a9f0c	0.016921543
231	0x3cff773f	0.03118479
232	0x3db6376d	0.088972904
233	0xbe146053	-0.1448987
234	0x3e05cc9b	0.13066332
235	0x3d6e2371	0.05813927
236	0x3db62d56	0.08895366
237	0xbe15304c	-0.14569205
238	0xbd7133de	-0.058887355
239	0xbdaee66a	-0.08540042
240	0xbde4490d	-0.11146746
241	0xba179857	-0.0005782893
242	0xbd627ef4	-0.055296853
243	0x3e0302d7	0.12794052
244	0xbe15e0e0	-0.14636564
245	0xbab19401	-0.0013548137
246	0xbd15d649	-0.03658131
247	0xbda763cd	-0.08173332
248	0x3da5f0c3	0.08102562
249	0xbd77a78e	-0.060462527
250	0x3df2db94	0.118582875
251	0xbad0d7bd	-0.0015933436
252	0xbdded7ba	-0.1088099
253	0xbdaf5f8f	-0.08563148
254	0x3d409011	0.047012392
255	0x3dc3fbd0	0.09569514

weight f4 [200]
0	0x3f8555e1	1.0416833
1	0x3f7abeb4	0.9794724
2	0x3f7d70f1	0.9900046
3	0x3f7e90dd	0.99439794
4	0x3f923648	1.1422815
5	0x3f74252a	0.9536921
6	0x3f771b3f	0.9652595
7	0x3f77de08	0.9682317
8	0x3f7bb355	0.98320514
9	0x3f76780c	0.96276927
10	0x3f884c7d	1.0648342
11	0x3f8f6e3f	1.120552
12	0x3f78c731	0.9717894
13	0x3f7aa6ab	0.97910565
14	0x3f7795e9	0.9671312
15	0x3f84e329	1.0381824
16	0x3f76f7f9	0.96472126
17	0x3f7a51eb	0.97781247
18	0x3f7476d9	0.9549385
19	0x3f8766ec	1.0578284
20	0x3f77974a	0.96715224
21	0x3f81b001	1.0131837
22	0x3f82525b	1.0181383
23	0x3f77b292	0.9675685
24	0x3f77964c	0.9671371
25	0x3f77e9a0	0.9684086
26	0x3f7df1ee	0.9919728
27	0x3f80f241	1.007393
28	0x3f76ce5f	0.9640865
29	0x3f77ae5a	0.96750414
30	0x3f7794b4	0.9671128
31	0x3f788ef5	0.97093135
32	0x3f822c09	1.0169688
33	0x3f7bff12	0.9843608
34	0x3f74289a	0.95374453
35	0x3f78d883	0.9720537
36	0x3f817e43	1.0116657
37	0x3f785522	0.970049
38	0x3f7b387f	0.9813308
39	0x3f8d1322	1.1021464
40	0x3f8728dc	1.0559344
41	0x3f750001	0.9570313
42	0x3f7a221a	0.97708285
43	0x3f8a0db5	1.0785433
44	0x3f847949	1.0349513
45	0x3f8399cf	1.0281314
46	0x3f774a27	0.9659752
47	0x3f7d7f3f	0.9902229
48	0x3f75a62a	0.9595667
49	0x3f7718e7	0.9652237
50	0x3f784800	0.96984863
51	0x3f83891b	1.0276216
52	0x3f7822d2	0.9692813
53	0x3f79308b	0.97339696
54	0x3f7d4d03	0.98945636
55	0x3f7a7f52	0.97850525
56	0x3f7868f6	0.9703516
57	0x3f7ab9a2	0.97939503
58	0x3f7b6e45	0.9821513
59	0x3f790fd5	0.9728978
60	0x3f7bd874	0.98377156
61	0x3f7d27a6	0.98888624
62	0x3f79efac	0.97631335
63	0x3f7d1a9d	0.98868734
64	0x3f7bce62	0.9836179
65	0x3f7dcd87	0.99141735
66	0x3f7a915a	0.9787804
67	0x3f7af5e2	0.9803144
68	0x3f7ba6ee	0.9830159
69	0x3f797951	0.9745074
70	0x3f79a7e6	0.9752182
71	0x3f802d06	1.001374
72	0x3f792e31	0.9733611
73	0x3f7984a5	0.97468024
74	0x3f76dcea	0.9643084
75	0x3f7a8997	0.97866195
76	0x3f7bdcfb	0.98384064
77	0x3f76d546	0.9641918
78	0x3f799610	0.974946
79	0x3f80022e	1.0000665
80	0x3f77a8e1	0.96742064
81	0x3f7f0fc3	0.99633425
82	0x3f76e75f	0.96446794
83	0x3f78faa1	0.9725743
84	0x3f7ef2f7	0.99589485
85	0x3f7731da	0.9656044
86	0x3f7b7419	0.98224026
87	0x3f80e5bb	1.0070108
88	0x3f7cbf3a	0.9872929
89	0x3f7562ef	0.95854086
90	0x3f7d339d	0.9890688
91	0x3f76e7ad	0.9644726
92	0x3f74c02a	0.9560572
93	0x3f7198e3	0.9437391
94	0x3f82a835	1.0207583
95	0x3f7edd7f	0.99556726
96	0x3f7f15c0	0.9964256
97	0x3f79bdd2	0.9755527
98	0x3f7851bb	0.9699971
99	0x3f80dac0	1.0066757
100	0x3f755b7f	0.95842737
101	0x3f79ae30	0.97531414
102	0x3f7ba258	0.9829459
103	0x3f8dc640	1.1076126
104	0x3f74d407	0.9563603
105	0x3f7788b5	0.96692973
106	0x3f763038	0.96167326
107	0x3f853117	1.0405606
108	0x3f8507a5	1.0392958
109	0x3f75c7c4	0.96007943
110	0x3f7bb360	0.9832058
111	0x3f7d8680	0.99033356
112	0x3f74c96d	0.9561985
113	0x3f7d7700	0.99009705
114	0x3f77cf56	0.96800745
115	0x3f756399	0.958551
116	0x3f7c83fb	0.98638886
117	0x3f81d154	1.0142007
118	0x3f7a8b00	0.9786835
119	0x3f793d5d	0.9735926
120	0x3f835ffe	1.026367
121	0x3f82ba79	1.0213157
122	0x3f791224	0.97293305
123	0x3f78f9f9	0.9725643
124	0x3f7c9253	0.98660773
125	0x3f785cf3	0.9701683
126	0x3f767747	0.9627575
127	0x3f7b9088	0.9826741
128	0x3f8f5da7	1.1200455
129	0x3f797ca5	0.9745582
130	0x3f81ad6d	1.013105
131	0x3f7c39d7	0.98525757
132	0x3f7a1c6e	0.9769963
133	0x3f7b622b	0.9819667
134	0x3f7a8f74	0.9787514
135	0x3f789d35	0.9711488
136	0x3f810937	1.0080937
137	0x3f77aa09	0.9674383
138	0x3f773704	0.9656832
139	0x3f7810a6	0.96900403
140	0x3f7d7d7f	0.99019617
141	0x3f79a7ea	0.9752184
142	0x3f76ef71	0.9645911
143	0x3f72d5a4	0.9485724
144	0x3f80befe	1.0058286
145	0x3f754aa4	0.9581702
146	0x3f7988c6	0.97474325
147	0x3f81d711	1.0143758
148	0x3f7d2320	0.9888172
149	0x3f790c96	0.9728483
150	0x3f8039c8	1.0017633
151	0x3f7e1d45	0.9926341
152	0x3f7bc95f	0.9835414
153	0x3f7df951	0.9920855
154	0x3f78a84f	0.9713182
155	0x3f7c566b	0.98569363
156	0x3f7c1680	0.9847183
157	0x3f7a963b	0.97885484
158	0x3f736e58	0.95090246
159	0x3f7e2d06	0.9928745
160	0x3f8038d1	1.0017339
161	0x3f79881b	0.97473305
162	0x3f7aecee	0.98017776
163	0x3f810385	1.0079199
164	0x3f8798c8	1.05935
165	0x3f782192	0.96926224
166	0x3f7b7648	0.9822736
167	0x3f84843e	1.0352857
168	0x3f8224d7	1.0167493
169	0x3f793de1	0.97360045
170	0x3f7a5c5d	0.97797185
171	0x3f7b1446	0.9807781
172	0x3f846d78	1.0345907
173	0x3f7c0aae	0.98453796
174	0x3f808aaa	1.0042317
175	0x3f78b54c	0.9715164
176	0x3f75ba0b	0.95987004
177	0x3f77c2ac	0.9678142
178	0x3f77ace9	0.96748215
179	0x3f71a8fc	0.94398475
180	0x3f7c33aa	0.98516333
181	0x3f72b11c	0.948015
182	0x3f6febe0	0.9371929
183	0x3f78f5ab	0.9724986
184	0x3f737e50	0.9511461
185	0x3f77c443	0.96783847
186	0x3f755766	0.95836484
187	0x3f7c5a7c	0.9857557
188	0x3f755487	0.95832103
189	0x3f7847a3	0.9698431
190	0x3f7c80f2	0.98634255
191	0x3f738197	0.95119613
192	0x3f7b7068	0.98218393
193	0x3f7da15d	0.99074346
194	0x3f788ede	0.97093
195	0x3f794b0c	0.9738014
196	0x3f758588	0.9590688
197	0x3f78b938	0.9715762
198	0x3f81f02d	1.0151421
199	0x3f8b7638	1.0895452

bias f4 [200]
0	0xbce4364f	-0.027857928
1	0xbc76f632	-0.015073346
2	0x3a6d4eee	0.0009052594
3	0x3b2b532e	0.0026142108
4	0x3a547e2a	0.0008105958
5	0x3e1c249d	0.15248342
6	0xbe1cc0ce	-0.15307924
7	0x3d485ae7	0.048914816
8	0x3d07d8ae	0.033165626
9	0x3dd6d894	0.10490528
10	0x3d13a75d	0.036048282
11	0xbc7e4bff	-0.015521049
12	0x3d850cef	0.064966075
13	0xbd9d8d54	-0.07692972
14	0x3cd58425	0.026063988
15	0xbd73069a	-0.059332468
16	0xbc96f863	-0.018428987
17	0xbc70c1fe	-0.014694689
18	0x3d328bf9	0.04359052
19	0x3d36268f	0.044470366
20	0x3d019a35	0.031641204
21	0x3e248aee	0.16068622
22	0x3de02ef7	0.10946458
23	0x3d632786	0.055457614
24	0xbe0a2d3a	-0.13493815
25	0x3bfe2164	0.0077554453
26	0x3bb74aa3	0.005593614
27	0x3d3303b6	0.04370471
28	0x3bff771a	0.0077961804
29	0xbca794fc	-0.020456783
30	0x3db30f3a	0.087431386
31	0xbd990f46	-0.07473616
32	0xbd3941fe	-0.04522895
33	0x3d6ac37d	0.05731534
34	0x3d7ea79c	0.062171564
35	0xbe0516b8	-0.12996948
36	0x3d2af55d	0.041737903
37	0xbdb23dbd	-0.08703182
38	0x3d15dad3	0.03658564
39	0x3cde9eb0	0.027175277
40	0xbd22ab6b	-0.03971426
41	0x3c0e2c8f	0.008677616
42	0x3e45b709	0.19308104
43	0x3cc98ddd	0.024603778
44	0x3ccbc795	0.024875442
45	0xbd97005c	-0.073731154
46	0x3dab0a6f	0.083515994
47	0xbd50864b	-0.05090932
48	0xbc9d4c40	-0.019201398
49	0x3b499fe2	0.0030765464
50	0x3dbf6032	0.0934452
51	0xbd731120	-0.059342504
52	0xbcd0d8b3	-0.025493955
53	0x3d67540f	0.05647665
54	0x3dbb58e3	0.09147813
55	0xbcb9d2b9	-0.022683488
56	0x3d9c0a97	0.07619207
57	0x3d9f4380	0.077765465
58	0xbd82d12f	-0.06387555
59	0x3c845df1	0.016158076
60	0x39dcc485	0.00042108088
61	0xbc83b66c	-0.016078196
62	0x3dd271b6	0.10275595
63	0xbc9b9a49	-0.018994467
64	0x3d4cdc62	0.05001486
65	0x3d11daf7	0.03560921
66	0x3dec2d14	0.115320355
67	0x3da53a8d	0.08067808
68	0xbce200b5	-0.027588228
69	0xbd37631e	-0.04477226
70	0x3db21d2c	0.0869697
71	0x3d958d5e	0.07302354
72	0x3dbfd93f	0.09367608
73	0xbd763d70	-0.060117185
74	0xbda8f737	-0.082502775
75	0x3d9d5ae3	0.07683351
76	0xbd3c9483	-0.04604007
77	0x3dd6b08f	0.10482895
78	0xbddba3e6	-0.107246205
79	0x3e3c3587	0.18379794
80	0x3d1e6fd3	0.038680863
81	0x3d6260ac	0.055267975
82	0xbd0c1b13	-0.034205507
83	0x3e39c23d	0.18140502
84	0x3cb129eb	0.021626433
85	0x3d9ffa57	0.078114204
86	0xbcbc42de	-0.022981104
87	0x3d819a77	0.0632829
88	0x3d8b5010	0.0680238
89	0xbddc0185	-0.10742477
90	0x3d824b58	0.06362027
91	0xbe183645	-0.14864452
92	0x3d84b2f5	0.06479446
93	0x3bf78064	0.007553147
94	0x3e2bb08b	0.16766565
95	0x3de9b55d	0.114115454
96	0x3d932094	0.07183948
97	0xbcd482df	-0.02594131
98	0xbcebf33b	-0.028802505
99	0x3dba83a4	0.0910714
100	0xbe0d5ab6	-0.13804135
101	0x3d6045c9	0.054754052
102	0xbd47381d	-0.0486375
103	0x3ce36308	0.027757183
104	0xbcb95141	-0.022621753
105	0x3d882d64	0.066492826
106	0xbddde8dc	-0.1083543
107	0xbd8ac127	-0.06775122
108	0x3e1cef6b	0.15325706
109	0x3d182a15	0.037149508
110	0xbda88fb5	-0.08230535
111	0x3e20b861	0.15695335
112	0x3d894042	0.06701709
113	0x3d78b667	0.060720827
114	0xbd12af3c	-0.035811648
115	0x3e0a5c4a	0.13511768
116	0x3cfe5ee5	0.031051109
117	0x3c33fd50	0.010985687
118	0xbd5fd8c0	-0.05465007
119	0x3d1d2306	0.03836348
120	0xbcedb45c	-0.029016666
121	0xbd850754	-0.06495538
122	0x3cbb33d3	0.02285186
123	0x3db9f62b	0.09080156
124	0x3e112695	0.14174874
125	0x3dc198ab	0.09452947
126	0xbd50569e	-0.050863855
127	0x3cf15298	0.02945833
128	0x3db7c0c4	0.08972314
129	0x3e0e39b7	0.13889204
130	0xbdbbce60	-0.09170222
131	0xbd39d51d	-0.045369256
132	0xbd64817c	-0.05578755
133	0x3da44c7b	0.080224
134	0x3dfb87dc	0.122817725
135	0xbcb5d07d	-0.022194142
136	0xbdadef12	-0.08492865
137	0x3d9af0e0	0.075654745
138	0x3da523cf	0.080634706
139	0xbd290b43	-0.041270506
140	0x3c939eb3	0.01802001
141	0x3d876345	0.06610731
142	0x3da4aa80	0.08040333
143	0xbc3978c5	-0.011320298
144	0x3e076d23	0.13225226
145	0xbc842d82	-0.016134981
146	0xbcbad2ac	-0.022805534
147	0xbd8749d4	-0.066058785
148	0xbd7adda3	-0.061246525
149	0xbc22f78e	-0.009946717
150	0x3a86b552	0.0010277426
151	0xbcc099b2	-0.023510788
152	0x3d28de42	0.041227587
153	0x3d4cd499	0.050007436
154	0xbdc37bdd	-0.095451094
155	0x3ddc39e2	0.10753228
156	0xbd309d83	-0.043118965
157	0x3df0c850	0.117569566
158	0xbd4bd8c5	-0.049767274
159	0xbcad002c	-0.021118246
160	0xbd15b65f	-0.036550876
161	0x3dc372ba	0.09543367
162	0xbd21a14d	-0.03946047
163	0x3c771746	0.015081232
164	0xbdcfcb7c	-0.101462334
165	0xbd7fa499	-0.062412832
166	0xbd98cab7	-0.0746054
167	0xbd0fc36c	-0.03509848
168	0xbcf3a7a3	-0.029743021
169	0xbd6c925e	-0.057756774
170	0x3c9347b0	0.01797852
171	0xbdf9dec5	-0.12200693
172	0x3caef093	0.02135495
173	0xbcf31e56	-0.029677551
174	0xbb26e25d	-0.0025464513
175	0x3d99b5eb	0.07505401
176	0x3cc064db	0.023485592
177	0x3e13fbc8	0.14451516
178	0xbd8e4827	-0.06947356
179	0x3d2fe629	0.042944107
180	0x3d894bc7	0.067039065
181	0x3a222cbb	0.0006186475
182	0xbd25e854	-0.04050477
183	0xbdae8333	-0.08521118
184	0x3d7e15e1	0.062032584
185	0xbde3ee32	-0.111294165
186	0xbdac7004	-0.08419803
187	0x3d8a014f	0.06738531
188	0x3e1b417c	0.15161699
189	0xbd74d559	-0.059773777
190	0xbdc380bd	-0.09546039
191	0xbda7f5ec	-0.08201203
192	0x3cd726fb	0.026263705
193	0x3dbbffa9	0.09179623
194	0xbdbc5058	-0.09195012
195	0x3d50ef61	0.05100954
196	0x3d0f5f0d	0.035002757
197	0xbd27d8a9	-0.040978108
198	0xbc68f418	-0.014218353
199	0x3c85fbfe	0.01635551

running_mean f4 [200]
0	0x3b871b1b	0.0041231043
1	0x3d95e65f	0.073193304
2	0x3caae751	0.020862253
3	0x3c675ee1	0.014121742
4	0x3c3aa66f	0.01139222
5	0x3d2a9b54	0.04165204
6	0x3d79981b	0.060936075
7	0x3d544b8b	0.051829856
8	0x3ccbd0cf	0.024879841
9	0x3d9757fe	0.0738983
10	0x3bf0453e	0.007332473
11	0x3c3b05a5	0.01141492
12	0x3c5c0401	0.013428689
13	0x3cd06958	0.025440857
14	0x3d0c2762	0.034217246
15	0x3c45e562	0.012078615
16	0x3da94e58	0.08266896
17	0x3da6f653	0.08152451
18	0x3d721f74	0.059112027
19	0x3c0aa4ee	0.008462174
20	0x3d7d549e	0.061848275
21	0x3c196a53	0.009363729
22	0x3c11235e	0.00885853
23	0x3d3cb088	0.04606679
24	0x3ce62755	0.028094927
25	0x3cff5a9b	0.031171134
26	0x3da16ed3	0.07882466
27	0x3ca7048a	0.020387907
28	0x3d1d9d3b	0.038480025
29	0x3d04d879	0.032433007
30	0x3d12d50a	0.0358477
31	0x3d02b817	0.031913843
32	0x3cbf09bc	0.023320071
33	0x3d96388f	0.073350064
34	0x3d103376	0.035205327
35	0x3d274da1	0.040845517
36	0x3ca49aa1	0.020093264
37	0x3d31c77f	0.043403145
38	0x3caa3283	0.020776039
39	0x3b571aaf	0.00328223
40	0x3c45abc0	0.012064874
41	0x3d07c6e9	0.03314868
42	0x3d226745	0.039649267
43	0x3b50a3d4	0.003183593
44	0x3c671053	0.014103013
45	0x3c9b68cb	0.018970868
46	0x3d1a6f29	0.037703667
47	0x3d3ba7d8	0.045814365
48	0x3d672a2c	0.056436703
49	0x3d209418	0.039203733
50	0x3d9cfaf9	0.07665057
51	0x3c826b3e	0.015920278
52	0x3d35cfff	0.044387814
53	0x3dbcd76e	0.092207775
54	0x3cdd539b	0.027017405
55	0x3cabd43c	0.020975225
56	0x3d492a75	0.049112756
57	0x3cee52a7	0.029092146
58	0x3d170cc2	0.0368774
59	0x3d35bf62	0.04437197
60	0x3d898c3f	0.06716203
61	0x3d3ab727	0.045584824
62	0x3d454e1f	0.048170205
63	0x3d5ac2e2	0.05340851
64	0x3cb5e807	0.022205366
65	0x3cc0f726	0.02355535
66	0x3d0b3795	0.033988554
67	0x3d38fc50	0.0451625
68	0x3d7d54e6	0.061848544
69	0x3d7e3047	0.06205776
70	0x3d44bdf7	0.048032727
71	0x3cf63863	0.030056184
72	0x3d110d45	0.035413045
73	0x3d2fc547	0.042912748
74	0x3cb4bf82	0.022063974
75	0x3d8e6c43	0.06954243
76	0x3cd0c85c	0.025486164
77	0x3d1e5aa0	0.038660645
78	0x3d6afa14	0.0573674
79	0x3cde55b6	0.02714048
80	0x3cbd60ba	0.023117412
81	0x3c30a621	0.010781796
82	0x3d8e368e	0.06943999
83	0x3ccb16bb	0.024791112
84	0x3c899935	0.016796688
85	0x3cd07069	0.025444226
86	0x3c8d2f6f	0.017234532
87	0x3c922eec	0.01784464
88	0x3c5c1164	0.013431881
89	0x3d23c9e6	0.039987467
90	0x3d109407	0.03529742
91	0x3d9219d2	0.07133831
92	0x3cce5449	0.025186675
93	0x3d49190a	0.049096145
94	0x3c565bc7	0.013083405
95	0x3c26f85b	0.0101910485
96	0x3bd65c96	0.006541799
97	0x3d7d57ba	0.06185124
98	0x3d716856	0.058937393
99	0x3ca300cc	0.01989784
100	0x3d172b7c	0.036906704
101	0x3d53d2b2	0.051714607
102	0x3cb1f60b	0.021723768
103	0x3b2d8398	0.002647614
104	0x3cb6a4f9	0.022295462
105	0x3d68e50a	0.056859054
106	0x3d523248	0.051317483
107	0x3c158add	0.009127346
108	0x3bb44053	0.005500832
109	0x3d91d072	0.07119836
110	0x3d96bcce	0.073602304
111	0x3d0a5290	0.033770144
112	0x3caf7fce	0.021423247
113	0x3c8f32d2	0.017480288
114	0x3d2ec8e6	0.04267206
115	0x3d96dab5	0.07365934
116	0x3d36f5c7	0.044667985
117	0x3be04f6c	0.0068454053
118	0x3d12ae33	0.03581066
119	0x3d955536	0.07291643
120	0x3c455540	0.012044251
121	0x3bb7ccc0	0.005609125
122	0x3d00a2ad	0.03140514
123	0x3d108ce8	0.03529063
124	0x3d048396	0.032352053
125	0x3d44c198	0.048036188
126	0x3c356c5c	0.011073198
127	0x3ceec97c	0.02914881
128	0x3bb1d2fa	0.0054267617
129	0x3d7cb48c	0.06169562
130	0x3bdb71a9	0.006696899
131	0x3d213246	0.039354585
132	0x3d1c516d	0.03816359
133	0x3d159ba4	0.036525384
134	0x3cffbad8	0.031217024
135	0x3c8a788f	0.01690319
136	0x3c964b52	0.018346462
137	0x3d312d4a	0.04325608
138	0x3d09bdfe	0.033628456
139	0x3cbb0982	0.022831682
140	0x3c0f0038	0.0087280795
141	0x3d3ae58a	0.04562906
142	0x3d0fbe72	0.035093732
143	0x3d9e3920	0.077257395
144	0x3cb9f089	0.022697704
145	0x3d809f9f	0.06280445
146	0x3d3b7c48	0.04577282
147	0x3c259352	0.010105925
148	0x3c43be3c	0.011947211
149	0x3d89231e	0.06696151
150	0x3c65894b	0.014009784
151	0x3ccae08a	0.024765272
152	0x3d2093e2	0.039203532
153	0x3d42f005	0.04759218
154	0x3da75203	0.08169939
155	0x3cf1574a	0.029460568
156	0x3d03e26c	0.032198355
157	0x3d031141	0.031998876
158	0x3d45163f	0.04811692
159	0x3bda9a5e	0.006671234
160	0x3cebdabd	0.028790826
161	0x3d244f35	0.0401146
162	0x3c8f909c	0.01752501
163	0x3cb9ed1d	0.022696072
164	0x3ba03bb3	0.004889929
165	0x3c96112d	0.018318737
166	0x3c273332	0.010205077
167	0x3b988aa5	0.0046551996
168	0x3cfe07a4	0.031009503
169	0x3cd5fa1e	0.026120242
170	0x3cb26407	0.021776212
171	0x3c778d80	0.01510942
172	0x3beaeb71	0.00716918
173	0x3ce86b52	0.028371487
174	0x3d008b66	0.03138294
175	0x3dad0d42	0.08449794
176	0x3d3f321c	0.046678647
177	0x3da36b0e	0.079794034
178	0x3d80399e	0.062609896
179	0x3da3ea9f	0.08003735
180	0x3cd766cd	0.026294136
181	0x3d361ad8	0.044459194
182	0x3d46acbe	0.048504584
183	0x3d1adadc	0.037806377
184	0x3d755b74	0.05990167
185	0x3d060e13	0.032728266
186	0x3d310b6d	0.043223787
187	0x3d114cee	0.035473756
188	0x3d8d3045	0.06893972
189	0x3cda9362	0.026681606
190	0x3d665e39	0.0562422
191	0x3d1bf660	0.03807676
192	0x3cd21fac	0.025649868
193	0x3cd26490	0.025682718
194	0x3d2c0949	0.042001043
195	0x3d770f0a	0.060317077
196	0x3d11331f	0.035449143
197	0x3d66320d	0.056200076
198	0x3c78d8c8	0.015188403
199	0x3b79edd2	0.0038136137

running_var f4 [200]
0	0x38a1c538	7.713813e-05
1	0x3c4d21ed	0.012520296
2	0x3a73d22d	0.0009301033
3	0x39c70633	0.00037960857
4	0x3970bd4a	0.00022958699
5	0x3be211fe	0.0068991175
6	0x3bfa436d	0.0076374323
7	0x3b1b390a	0.002368512
8	0x3b3159d6	0.0027061603
9	0x3c71548b	0.014729629
10	0x3929a432	0.00016178263
11	0x39821568	0.0002481148
12	0x3a491a4a	0.0007671459
13	0x3ae9dd7e	0.0017842499
14	0x3ab01cc2	0.0013436305
15	0x39ab5e37	0.00032685857
16	0x3c8d5e35	0.017256835
17	0x3c5767c4	0.013147298
18	0x3b3d2cb0	0.0028865747
19	0x3950fe94	0.00019931264
20	0x3be34e1e	0.0069368025
21	0x39d4bf95	0.0004057853
22	0x395fcf8b	0.00021344253
23	0x3b28c8e9	0.0025754517
24	0x3ad22a62	0.001603436
25	0x3a737da6	0.00092884374
26	0x3c66bb19	0.0140826935
27	0x3a9daf0c	0.0012030317
28	0x3b919ae0	0.0044435114
29	0x3b6cdfbd	0.00361441
30	0x3bc3c35a	0.0059742155
31	0x3bc4aa70	0.006001763
32	0x3a297582	0.00064643484
33	0x3c66d70c	0.014089357
34	0x3ac11c65	0.0014733194
35	0x3afc1451	0.0019232129
36	0x3aec7a68	0.0018041851
37	0x3bb8eac8	0.0056432225
38	0x3ac0d84a	0.0014712897
39	0x38601c5c	5.3432173e-05
40	0x39a55501	0.00031534585
41	0x3ac7a43d	0.0015231442
42	0x3accd5dd	0.0015627701
43	0x38741f47	5.8203263e-05
44	0x39b11b38	0.0003378035
45	0x39ffd5d7	0.00048796713
46	0x3bddc0c0	0.0067673624
47	0x3ae69cd1	0.0017594342
48	0x3c035ef8	0.008018248
49	0x3bc3d390	0.005976148
50	0x3c82be28	0.015959814
51	0x3a00f0d4	0.00049186987
52	0x3b46abf3	0.0030314892
53	0x3c9ff40b	0.019525548
54	0x3a719cda	0.0009216793
55	0x3a93329a	0.001123029
56	0x3b26b72a	0.0025438764
57	0x3b72b717	0.00370354
58	0x3b05b718	0.0020403322
59	0x3bfd44e8	0.0077291615
60	0x3c5abdbc	0.0133509
61	0x3b90ea91	0.0044224937
62	0x3c22c7f1	0.009935365
63	0x3b1f9f78	0.0024356525
64	0x3b1cc0b8	0.002391858
65	0x3a47abf7	0.00076168723
66	0x3b9ffb2f	0.0048822383
67	0x3af7745f	0.0018879286
68	0x3bc9da4d	0.0061600567
69	0x3c1436b8	0.009046249
70	0x3b93a210	0.0045054033
71	0x3a79a2d2	0.00095228583
72	0x3bada2c8	0.005298946
73	0x3bf418ae	0.007449231
74	0x3b135d57	0.0022486055
75	0x3c019085	0.007907991
76	0x3a370539	0.0006981674
77	0x3af02ebf	0.0018324478
78	0x3bf95716	0.0076092584
79	0x3b3ce9bc	0.002882584
80	0x3a9469f7	0.0011323084
81	0x39b520f6	0.00034547568
82	0x3c891117	0.016731782
83	0x3b29646d	0.0025847212
84	0x39c88706	0.00038247573
85	0x3a9a42e8	0.0011769207
86	0x3a7bcf51	0.00096057827
87	0x3a07c1c3	0.0005178714
88	0x3a34544a	0.0006879015
89	0x3bee9d3f	0.007281929
90	0x3a9ea378	0.0012103161
91	0x3c05c230	0.008163974
92	0x3a629d40	0.0008644648
93	0x3ae4cd54	0.0017456212
94	0x3a6549af	0.00087466364
95	0x399aca09	0.00029523697
96	0x394a3db2	0.00019287204
97	0x3bde5f79	0.0067862836
98	0x3c0fd562	0.008778902
99	0x3a074067	0.0005159438
100	0x3b5da270	0.0033818744
101	0x3c2b82c2	0.010468187
102	0x3a15ccb1	0.00057144003
103	0x38683706	5.5364355e-05
104	0x3b11a055	0.002222081
105	0x3bac197c	0.0052520614
106	0x3c11d0aa	0.008899847
107	0x394ce1b2	0.00019539034
108	0x391cb965	0.00014946384
109	0x3c97fd87	0.018553508
110	0x3c2b90d0	0.010471538
111	0x3b7c3b66	0.0038487553
112	0x3b2cbab3	0.0026356399
113	0x3a7d1968	0.000965497
114	0x3c2a0f99	0.010379695
115	0x3c519f43	0.012794319
116	0x3b92bdad	0.0044781775
117	0x39809eed	0.0002453247
118	0x3ac378f7	0.001491337
119	0x3c2ef377	0.010678164
120	0x39931089	0.00028050345
121	0x38e6eaf1	0.00011011016
122	0x3b08d53e	0.0020879055
123	0x3ba47dd8	0.0050198846
124	0x3b9e3ff9	0.0048294035
125	0x3c0e8539	0.008698755
126	0x3a3255e5	0.00068029604
127	0x3a83d444	0.0010057767
128	0x391036ec	0.0001375337
129	0x3c2088b4	0.009798218
130	0x393d6730	0.00018062885
131	0x3ba41338	0.005007174
132	0x3aa8d6ca	0.0012881395
133	0x3b27aac0	0.0025583953
134	0x3b8d6f12	0.004316219
135	0x3a2dd1db	0.0006630697
136	0x39cd9b73	0.00039216466
137	0x3ac317e8	0.0014884444
138	0x3b8ba3a9	0.004261453
139	0x3a434c08	0.0007449989
140	0x39a420fb	0.0003130509
141	0x3be28fc5	0.0069141113
142	0x3b81cb06	0.00396097
143	0x3c8d2cbc	0.017233245
144	0x3b1caf08	0.0023908038
145	0x3c62a992	0.013834374
146	0x3ad9288e	0.0016567872
147	0x398d5120	0.0002695406
148	0x3a4b78f7	0.00077618606
149	0x3bdf1feb	0.006809225
150	0x3a80b234	0.0009818734
151	0x3a64de19	0.0008730605
152	0x3b5ba944	0.0033517638
153	0x3b31d3ed	0.0027134374
154	0x3c87a2ae	0.016557064
155	0x3b7d7be4	0.003867858
156	0x3ba52810	0.005040176
157	0x3aa4aa36	0.0012562934
158	0x3c205245	0.00978524
159	0x3935832a	0.00017310368
160	0x3a87224e	0.0010309906
161	0x3b43b945	0.0029865068
162	0x3a0d208d	0.00053835736
163	0x3a3f3056	0.00072932744
164	0x38e0fdb1	0.00010728406
165	0x3a8d49c9	0.0010779436
166	0x3a0f1fc4	0.00054597505
167	0x39069ec8	0.00012838386
168	0x3a905416	0.0011011388
169	0x3b12c2c3	0.002239392
170	0x3b06a634	0.0020545842
171	0x39fc3a48	0.00048108608
172	0x393f1b0d	0.00018225257
173	0x3a805f6d	0.0009794064
174	0x3ad0624e	0.0015898438
175	0x3c4bd714	0.012441415
176	0x3ba5e9ed	0.0050632865
177	0x3c3984a2	0.011323126
178	0x3bb25bbc	0.0054430645
179	0x3c8aeed4	0.016959585
180	0x3b4612fa	0.0030223713
181	0x3c0d4316	0.008621952
182	0x3b6593a1	0.003503062
183	0x3bd61cbc	0.006534187
184	0x3c2b991e	0.010473518
185	0x3aa3a9aa	0.0012486477
186	0x3b2e3694	0.0026582824
187	0x3ab02743	0.0013439435
188	0x3c81069e	0.015750226
189	0x3a660f64	0.0008776097
190	0x3bdb8e8c	0.0067003425
191	0x3bca2dd0	0.006170012
192	0x3b46646f	0.0030272265
193	0x3b0ebd05	0.0021780145
194	0x3c1bf173	0.009518015
195	0x3bb5e791	0.0055512865
196	0x3aa5036a	0.0012589518
197	0x3b1d43bf	0.0023996679
198	0x39efa0aa	0.00045705336
199	0x38ae53e7	8.3125946e-05
